Attempting 20 epochs on date of 2024-09-23 12:47:34 with model:
Model Summary:==========================================================================================
Layer (type:depth-idx)                   Output Shape              Param #
==========================================================================================
Tumor_Classifier                         [1, 2]                    --
├─ModuleList: 1-1                        --                        --
│    └─Linear: 2-1                       [1, 64]                   64,064
│    └─Linear: 2-2                       [1, 128]                  8,320
│    └─Linear: 2-3                       [1, 256]                  33,024
│    └─Linear: 2-4                       [1, 512]                  131,584
│    └─Linear: 2-5                       [1, 1024]                 525,312
│    └─Linear: 2-6                       [1, 2]                    2,050
==========================================================================================
Total params: 764,354
Trainable params: 764,354
Non-trainable params: 0
Total mult-adds (M): 0.76
==========================================================================================
Input size (MB): 0.00
Forward/backward pass size (MB): 0.02
Params size (MB): 3.06
Estimated Total Size (MB): 3.08
==========================================================================================
…
